2025-09-18 02:19:58 497 113 142
2025-09-18 02:19:58 752
2025-09-18 02:19:58 Model(
2025-09-18 02:19:58   (backbone): CBraMod(
2025-09-18 02:19:58     (patch_embedding): PatchEmbedding(
2025-09-18 02:19:58       (positional_encoding): Sequential(
2025-09-18 02:19:58         (0): Conv2d(200, 200, kernel_size=(19, 7), stride=(1, 1), padding=(9, 3), groups=200)
2025-09-18 02:19:58       )
2025-09-18 02:19:58       (proj_in): Sequential(
2025-09-18 02:19:58         (0): Conv2d(1, 25, kernel_size=(1, 49), stride=(1, 25), padding=(0, 24))
2025-09-18 02:19:58         (1): GroupNorm(5, 25, eps=1e-05, affine=True)
2025-09-18 02:19:58         (2): GELU(approximate='none')
2025-09-18 02:19:58         (3): Conv2d(25, 25, kernel_size=(1, 3), stride=(1, 1), padding=(0, 1))
2025-09-18 02:19:58         (4): GroupNorm(5, 25, eps=1e-05, affine=True)
2025-09-18 02:19:58         (5): GELU(approximate='none')
2025-09-18 02:19:58         (6): Conv2d(25, 25, kernel_size=(1, 3), stride=(1, 1), padding=(0, 1))
2025-09-18 02:19:58         (7): GroupNorm(5, 25, eps=1e-05, affine=True)
2025-09-18 02:19:58         (8): GELU(approximate='none')
2025-09-18 02:19:58       )
2025-09-18 02:19:58       (spectral_proj): Sequential(
2025-09-18 02:19:58         (0): Linear(in_features=101, out_features=200, bias=True)
2025-09-18 02:19:58         (1): Dropout(p=0.1, inplace=False)
2025-09-18 02:19:58       )
2025-09-18 02:19:58     )
2025-09-18 02:19:58     (encoder): TransformerEncoder(
2025-09-18 02:19:58       (layers): ModuleList(
2025-09-18 02:19:58         (0-11): 12 x TransformerEncoderLayer(
2025-09-18 02:19:58           (self_attn_s): MultiheadAttention(
2025-09-18 02:19:58             (out_proj): NonDynamicallyQuantizableLinear(in_features=100, out_features=100, bias=True)
2025-09-18 02:19:58           )
2025-09-18 02:19:58           (self_attn_t): MultiheadAttention(
2025-09-18 02:19:58             (out_proj): NonDynamicallyQuantizableLinear(in_features=100, out_features=100, bias=True)
2025-09-18 02:19:58           )
2025-09-18 02:19:58           (linear1): Linear(in_features=200, out_features=800, bias=True)
2025-09-18 02:19:58           (dropout): Dropout(p=0.1, inplace=False)
2025-09-18 02:19:58           (linear2): Linear(in_features=800, out_features=200, bias=True)
2025-09-18 02:19:58           (norm1): LayerNorm((200,), eps=1e-05, elementwise_affine=True)
2025-09-18 02:19:58           (norm2): LayerNorm((200,), eps=1e-05, elementwise_affine=True)
2025-09-18 02:19:58           (dropout1): Dropout(p=0.1, inplace=False)
2025-09-18 02:19:58           (dropout2): Dropout(p=0.1, inplace=False)
2025-09-18 02:19:58         )
2025-09-18 02:19:58       )
2025-09-18 02:19:58     )
2025-09-18 02:19:58     (proj_out): Identity()
2025-09-18 02:19:58   )
2025-09-18 02:19:58   (meta_backbone): Sequential(
2025-09-18 02:19:58     (0): Linear(in_features=28, out_features=100, bias=True)
2025-09-18 02:19:58     (1): ELU(alpha=1.0)
2025-09-18 02:19:58     (2): Dropout(p=0.1, inplace=False)
2025-09-18 02:19:58     (3): Linear(in_features=100, out_features=200, bias=True)
2025-09-18 02:19:58     (4): ELU(alpha=1.0)
2025-09-18 02:19:58   )
2025-09-18 02:19:58   (arranger): Rearrange('b c s d -> b (c s) d')
2025-09-18 02:19:58   (attention): ParamAttention(
2025-09-18 02:19:58     (Wq): Linear(in_features=200, out_features=200, bias=False)
2025-09-18 02:19:58     (Wk): Linear(in_features=200, out_features=200, bias=False)
2025-09-18 02:19:58     (Wv): Linear(in_features=200, out_features=200, bias=False)
2025-09-18 02:19:58     (drop): Dropout(p=0.1, inplace=False)
2025-09-18 02:19:58   )
2025-09-18 02:19:58   (classifier): Sequential(
2025-09-18 02:19:58     (0): Linear(in_features=200, out_features=1, bias=True)
2025-09-18 02:19:58     (1): Rearrange('b 1 -> (b 1)')
2025-09-18 02:19:58   )
2025-09-18 02:19:58 )
2025-09-18 02:19:58 100%|██████████████████████████████████████████████████████████████████████████████████████████████████████████| 32/32 [00:06<00:00,  4.79it/s]
2025-09-18 02:20:04 Epoch 1 : Training Loss: 0.70330, LR: 0.00030, Time elapsed 0.11 mins
2025-09-18 02:20:04 100%|████████████████████████████████████████████████████████████████████████████████████████████████████████████| 8/8 [00:00<00:00, 30.33it/s]
…
