502 117 133
752
Model(
  (backbone): CBraMod(
    (patch_embedding): PatchEmbedding(
      (positional_encoding): Sequential(
        (0): Conv2d(200, 200, kernel_size=(19, 7), stride=(1, 1), padding=(9, 3), groups=200)
      )
      (proj_in): Sequential(
        (0): Conv2d(1, 25, kernel_size=(1, 49), stride=(1, 25), padding=(0, 24))
        (1): GroupNorm(5, 25, eps=1e-05, affine=True)
        (2): GELU(approximate='none')
        (3): Conv2d(25, 25, kernel_size=(1, 3), stride=(1, 1), padding=(0, 1))
        (4): GroupNorm(5, 25, eps=1e-05, affine=True)
        (5): GELU(approximate='none')
        (6): Conv2d(25, 25, kernel_size=(1, 3), stride=(1, 1), padding=(0, 1))
        (7): GroupNorm(5, 25, eps=1e-05, affine=True)
        (8): GELU(approximate='none')
      )
      (spectral_proj): Sequential(
        (0): Linear(in_features=101, out_features=200, bias=True)
        (1): Dropout(p=0.1, inplace=False)
      )
    )
    (encoder): TransformerEncoder(
      (layers): ModuleList(
        (0-11): 12 x TransformerEncoderLayer(
          (self_attn_s): MultiheadAttention(
            (out_proj): NonDynamicallyQuantizableLinear(in_features=100, out_features=100, bias=True)
          )
          (self_attn_t): MultiheadAttention(
            (out_proj): NonDynamicallyQuantizableLinear(in_features=100, out_features=100, bias=True)
          )
          (linear1): Linear(in_features=200, out_features=800, bias=True)
          (dropout): Dropout(p=0.1, inplace=False)
          (linear2): Linear(in_features=800, out_features=200, bias=True)
          (norm1): LayerNorm((200,), eps=1e-05, elementwise_affine=True)
          (norm2): LayerNorm((200,), eps=1e-05, elementwise_affine=True)
          (dropout1): Dropout(p=0.1, inplace=False)
          (dropout2): Dropout(p=0.1, inplace=False)
        )
      )
    )
    (proj_out): Identity()
  )
  (meta_backbone): Sequential(
    (0): Linear(in_features=28, out_features=100, bias=True)
    (1): ELU(alpha=1.0)
    (2): Dropout(p=0.4, inplace=False)
    (3): Linear(in_features=100, out_features=200, bias=True)
    (4): ELU(alpha=1.0)
    (5): Dropout(p=0.4, inplace=False)
  )
  (classifier): Sequential(
    (0): Rearrange('b c s d -> b (c s d)')
    (1): Linear(in_features=114000, out_features=200, bias=True)
    (2): ELU(alpha=1.0)
    (3): Dropout(p=0.4, inplace=False)
  )
  (final_classifier): Sequential(
    (0): Linear(in_features=200, out_features=200, bias=True)
    (1): ELU(alpha=1.0)
    (2): Dropout(p=0.4, inplace=False)
    (3): Linear(in_features=200, out_features=1, bias=True)
    (4): Rearrange('b 1 -> (b 1)')
  )
)
100%|██████████████████████████████████████████████████████████████████████████████████████████████████████████| 32/32 [00:18<00:00,  1.76it/s]
100%|██████████████████████████████████████████████████████████████████████████████████████████████████████████| 32/32 [00:02<00:00, 14.23it/s]
Epoch 1 : Training Loss: 1.23273, acc: 0.50000, pr_auc: 0.84667, roc_auc: 0.89263, LR: 0.00030, Time elapsed 0.34 mins
…
