…
Namespace(seed=3407, cuda=0, epochs=50, batch_size=64, lr=0.00030950429210629905, weight_decay=0.00295788688022462, optimizer='AdamW', clip_value=1.6407142989836865, dropout=0.13431199533126753, classifier='all_patch_reps', downstream_dataset='BCIC2020-3', datasets_dir='/mnt/disk1/aiotlab/namth/EEGFoundationModel/datasets/speech/processed', num_of_classes=5, model_dir='/mnt/disk1/aiotlab/namth/EEGFoundationModel/finetune_models', num_workers=16, label_smoothing=0.1, multi_lr=True, frozen=False, use_pretrained_weights=True, foundation_dir='/mnt/disk1/aiotlab/namth/EEGFoundationModel/CBraMod/pretrained_weights/pretrained_weights.pth')
The downstream dataset is BCIC2020-3
4500 750 750
Model(
  (backbone): CBraMod(
    (patch_embedding): PatchEmbedding(
      (positional_encoding): Sequential(
        (0): Conv2d(200, 200, kernel_size=(19, 7), stride=(1, 1), padding=(9, 3), groups=200)
      )
      (proj_in): Sequential(
        (0): Conv2d(1, 25, kernel_size=(1, 49), stride=(1, 25), padding=(0, 24))
        (1): GroupNorm(5, 25, eps=1e-05, affine=True)
        (2): GELU(approximate='none')
        (3): Conv2d(25, 25, kernel_size=(1, 3), stride=(1, 1), padding=(0, 1))
        (4): GroupNorm(5, 25, eps=1e-05, affine=True)
        (5): GELU(approximate='none')
        (6): Conv2d(25, 25, kernel_size=(1, 3), stride=(1, 1), padding=(0, 1))
        (7): GroupNorm(5, 25, eps=1e-05, affine=True)
        (8): GELU(approximate='none')
      )
      (spectral_proj): Sequential(
        (0): Linear(in_features=101, out_features=200, bias=True)
        (1): Dropout(p=0.1, inplace=False)
      )
    )
    (encoder): TransformerEncoder(
      (layers): ModuleList(
        (0-11): 12 x TransformerEncoderLayer(
          (self_attn_s): MultiheadAttention(
            (out_proj): NonDynamicallyQuantizableLinear(in_features=100, out_features=100, bias=True)
          )
          (self_attn_t): MultiheadAttention(
            (out_proj): NonDynamicallyQuantizableLinear(in_features=100, out_features=100, bias=True)
          )
          (linear1): Linear(in_features=200, out_features=800, bias=True)
          (dropout): Dropout(p=0.1, inplace=False)
          (linear2): Linear(in_features=800, out_features=200, bias=True)
          (norm1): LayerNorm((200,), eps=1e-05, elementwise_affine=True)
          (norm2): LayerNorm((200,), eps=1e-05, elementwise_affine=True)
          (dropout1): Dropout(p=0.1, inplace=False)
          (dropout2): Dropout(p=0.1, inplace=False)
        )
      )
    )
    (proj_out): Identity()
  )
  (classifier): Sequential(
    (0): Rearrange('b c s d -> b (c s d)')
    (1): Linear(in_features=38400, out_features=600, bias=True)
    (2): ELU(alpha=1.0)
    (3): Dropout(p=0.13431199533126753, inplace=False)
    (4): Linear(in_features=600, out_features=200, bias=True)
    (5): ELU(alpha=1.0)
    (6): Dropout(p=0.13431199533126753, inplace=False)
    (7): Linear(in_features=200, out_features=5, bias=True)
  )
)
[34m[1mwandb[0m: Finishing previous runs because reinit is set to True.
