511 111 130
752
Model(
  (backbone): CBraMod(
    (patch_embedding): PatchEmbedding(
      (positional_encoding): Sequential(
        (0): Conv2d(200, 200, kernel_size=(19, 7), stride=(1, 1), padding=(9, 3), groups=200)
      )
      (proj_in): Sequential(
        (0): Conv2d(1, 25, kernel_size=(1, 49), stride=(1, 25), padding=(0, 24))
        (1): GroupNorm(5, 25, eps=1e-05, affine=True)
        (2): GELU(approximate='none')
        (3): Conv2d(25, 25, kernel_size=(1, 3), stride=(1, 1), padding=(0, 1))
        (4): GroupNorm(5, 25, eps=1e-05, affine=True)
        (5): GELU(approximate='none')
        (6): Conv2d(25, 25, kernel_size=(1, 3), stride=(1, 1), padding=(0, 1))
        (7): GroupNorm(5, 25, eps=1e-05, affine=True)
        (8): GELU(approximate='none')
      )
      (spectral_proj): Sequential(
        (0): Linear(in_features=101, out_features=200, bias=True)
        (1): Dropout(p=0.1, inplace=False)
      )
    )
    (encoder): TransformerEncoder(
      (layers): ModuleList(
        (0-11): 12 x TransformerEncoderLayer(
          (self_attn_s): MultiheadAttention(
            (out_proj): NonDynamicallyQuantizableLinear(in_features=100, out_features=100, bias=True)
          )
          (self_attn_t): MultiheadAttention(
            (out_proj): NonDynamicallyQuantizableLinear(in_features=100, out_features=100, bias=True)
          )
          (linear1): Linear(in_features=200, out_features=800, bias=True)
          (dropout): Dropout(p=0.1, inplace=False)
          (linear2): Linear(in_features=800, out_features=200, bias=True)
          (norm1): LayerNorm((200,), eps=1e-05, elementwise_affine=True)
          (norm2): LayerNorm((200,), eps=1e-05, elementwise_affine=True)
          (dropout1): Dropout(p=0.1, inplace=False)
          (dropout2): Dropout(p=0.1, inplace=False)
        )
      )
    )
    (proj_out): Identity()
  )
  (meta_backbone): Sequential(
    (0): Linear(in_features=28, out_features=100, bias=True)
    (1): ReLU()
    (2): Dropout(p=0.1, inplace=False)
    (3): Linear(in_features=100, out_features=200, bias=True)
    (4): ReLU()
  )
  (arranger): Rearrange('b c s d -> b (c s) d')
  (attention): ParamAttention(
    (Wq): Linear(in_features=200, out_features=200, bias=False)
    (Wk): Linear(in_features=200, out_features=200, bias=False)
    (Wv): Linear(in_features=200, out_features=200, bias=False)
    (drop): Dropout(p=0.1, inplace=False)
  )
  (classifier): Sequential(
    (0): Linear(in_features=200, out_features=1, bias=True)
    (1): Rearrange('b 1 -> (b 1)')
  )
)
100%|██████████████████████████████████████████████████████████████████████████████████████████████████████████| 32/32 [00:08<00:00,  3.56it/s]
Epoch 1 : Training Loss: 0.70213, LR: 0.00030, Time elapsed 0.15 mins
100%|████████████████████████████████████████████████████████████████████████████████████████████████████████████| 7/7 [00:00<00:00,  8.64it/s]
…
