…
.0003, weight_decay=0.05, optimizer='AdamW', clip_value=1, dropout=0.1, classifier='all_patch_reps', downstream_dataset='PEARL', datasets_dir='/mnt/disk1/aiotlab/namth/EEGFoundationModel/datasets/pearl', num_of_classes=2, model_dir='./data/wjq/models_weights/Big/BigFaced', num_workers=16, label_smoothing=0.1, multi_lr=False, frozen=False, use_pretrained_weights=True, foundation_dir='pretrained_weights/pretrained_weights.pth')
The downstream dataset is PEARL
3255 476 874
4605
Model(
  (backbone): CBraMod(
    (patch_embedding): PatchEmbedding(
      (positional_encoding): Sequential(
        (0): Conv2d(200, 200, kernel_size=(19, 7), stride=(1, 1), padding=(9, 3), groups=200)
      )
      (proj_in): Sequential(
        (0): Conv2d(1, 25, kernel_size=(1, 49), stride=(1, 25), padding=(0, 24))
        (1): GroupNorm(5, 25, eps=1e-05, affine=True)
        (2): GELU(approximate='none')
        (3): Conv2d(25, 25, kernel_size=(1, 3), stride=(1, 1), padding=(0, 1))
        (4): GroupNorm(5, 25, eps=1e-05, affine=True)
        (5): GELU(approximate='none')
        (6): Conv2d(25, 25, kernel_size=(1, 3), stride=(1, 1), padding=(0, 1))
        (7): GroupNorm(5, 25, eps=1e-05, affine=True)
        (8): GELU(approximate='none')
      )
      (spectral_proj): Sequential(
        (0): Linear(in_features=101, out_features=200, bias=True)
        (1): Dropout(p=0.1, inplace=False)
      )
    )
    (encoder): TransformerEncoder(
      (layers): ModuleList(
        (0-11): 12 x TransformerEncoderLayer(
          (self_attn_s): MultiheadAttention(
            (out_proj): NonDynamicallyQuantizableLinear(in_features=100, out_features=100, bias=True)
          )
          (self_attn_t): MultiheadAttention(
            (out_proj): NonDynamicallyQuantizableLinear(in_features=100, out_features=100, bias=True)
          )
          (linear1): Linear(in_features=200, out_features=800, bias=True)
          (dropout): Dropout(p=0.1, inplace=False)
          (linear2): Linear(in_features=800, out_features=200, bias=True)
          (norm1): LayerNorm((200,), eps=1e-05, elementwise_affine=True)
          (norm2): LayerNorm((200,), eps=1e-05, elementwise_affine=True)
          (dropout1): Dropout(p=0.1, inplace=False)
          (dropout2): Dropout(p=0.1, inplace=False)
        )
      )
    )
    (proj_out): Identity()
  )
  (meta_backbone): Sequential(
    (0): Linear(in_features=28, out_features=50, bias=True)
    (1): ELU(alpha=1.0)
    (2): Dropout(p=0.1, inplace=False)
    (3): Linear(in_features=50, out_features=50, bias=True)
  )
  (classifier): Sequential(
    (0): Rearrange('b c s d -> b (c s d)')
    (1): Linear(in_features=19000, out_features=1000, bias=True)
    (2): ELU(alpha=1.0)
    (3): Dropout(p=0.1, inplace=False)
    (4): Linear(in_features=1000, out_features=200, bias=True)
  )
  (final_classifier): Sequential(
    (0): Linear(in_features=250, out_features=200, bias=True)
    (1): ELU(alpha=1.0)
    (2): Dropout(p=0.1, inplace=False)
    (3): Linear(in_features=200, out_features=1, bias=True)
    (4): Rearrange('b 1 -> (b 1)')
  )
)
100%|██████████████████████████████████████████████████████████████████████████████████████████████████████████| 51/51 [00:05<00:00,  8.70it/s]
100%|████████████████████████████████████████████████████████████████████████████████████████████████████████████| 8/8 [00:00<00:00, 44.95it/s]
Epoch 1 : Training Loss: 0.53769, acc: 0.59034, pr_auc: 0.57402, roc_auc: 0.62607, LR: 0.00030, Time elapsed 0.10 mins
…
